…
>.] - ETA: 0s - loss: 0.1663 - accuracy: 0.93931875/1875 [==============================] - 6s 3ms/step - loss: 0.1663 - accuracy: 0.9393
Model: "model"
_________________________________________________________________
 Layer (type)                Output Shape              Param #   
=================================================================
 input_1 (InputLayer)        [(None, 28, 28)]          0         
                                                                 
 cast_to_float32 (CastToFloa  (None, 28, 28)           0         
 t32)                                                            
                                                                 
 expand_last_dim (ExpandLast  (None, 28, 28, 1)        0         
 Dim)                                                            
                                                                 
 normalization (Normalizatio  (None, 28, 28, 1)        3         
 n)                                                              
                                                                 
 random_contrast (RandomCont  (None, 28, 28, 1)        0         
 rast)                                                           
                                                                 
 conv2d (Conv2D)             (None, 26, 26, 256)       2560      
                                                                 
 conv2d_1 (Conv2D)           (None, 24, 24, 32)        73760     
                                                                 
 max_pooling2d (MaxPooling2D  (None, 12, 12, 32)       0         
 )                                                               
                                                                 
 dropout (Dropout)           (None, 12, 12, 32)        0         
                                                                 
 flatten (Flatten)           (None, 4608)              0         
                                                                 
 dropout_1 (Dropout)         (None, 4608)              0         
                                                                 
 dense (Dense)               (None, 10)                46090     
                                                                 
 classification_head_1 (Soft  (None, 10)               0         
 max)                                                            
                                                                 
=================================================================
Total params: 122,413
Trainable params: 122,410
Non-trainable params: 3
_________________________________________________________________
None
313/313 - 1s - loss: 0.1951 - accuracy: 0.9294 - 565ms/epoch - 2ms/step
…
